p1_navigation/checkpoint.pth (torch_old, 28451 bytes, 6 tensors)

fc1.weight f4 [64, 37]
-0.043637525 0.07389933 -0.17907365 0.00011414165 -0.15310757 -0.012003031 -0.2781013 0.27222428
0.09621319 -0.39507538 -0.00033137927 -0.19603172 -0.14309981 -0.11953544 -0.3301024 0.0045905635
0.11618922 0.11181858 -0.3527625 -0.1236755 0.12651087 0.14404164 -0.18392998 0.17366637
-0.14894103 -0.07214791 0.075114965 0.05541806 -0.11355248 -0.12366417 -0.14561376 0.1300569
0.035353325 -0.36571905 -0.11163947 -0.018624019 -0.026404584 0.17134058 0.08692635 0.22853129
-0.013860235 0.0011367593 0.08295296 -0.060306404 -0.047909874 -0.26140383 -0.37716833 0.17550923
0.018579086 -0.0024631089 0.12101995 -0.09808825 0.028068133 0.102290176 0.19989033 0.09054427
0.22374701 -0.12081014 -0.016361823 0.008584106 0.105313055 0.28809822 0.013755992 0.01424166
0.16102202 -0.02338258 -0.2625671 -0.017685484 0.2148782 0.20440407 0.13556056 -0.08339797
0.009275671 0.009219261 0.075438924 0.15440851 0.06537825 0.07456865 0.191285 -0.13991444
0.023894832 0.16685943 0.098220766 -0.25260505 0.2671792 -0.17158619 -0.15595132 -0.14088608
-0.81409365 0.047247913 0.03498401 0.089886144 0.0005575974 0.15623932 -0.3349166 -0.002388777
0.09320902 -0.056023855 -0.18454629 -0.22531755 0.09970587 0.11328019 0.14669187 0.08004787
-0.32793877 0.01481329 0.057299383 -0.2005299 -0.18120079 -0.07347247 0.012715297 0.2754857
-0.53223634 -0.058605053 -0.39360297 -1.1743861 -0.09830711 0.0045173387 -0.18077564 -0.11522587
-0.2841898 -0.21585545 -0.11961899 0.076496586 -0.12475719 -0.01700504 -0.11857119 -0.3081829
-0.06186651 -0.31785423 -0.3504036 -0.26654 -0.16954562 -0.15579501 0.25749323 -0.19104952
-0.16403672 0.20476075 -0.042598445 0.032999966 -0.11213537 0.1384551 0.3326886 -0.41131017
-0.37735498 0.21207088 0.21293227 -0.041082416 -0.14962386 -0.07799853 -0.05497802 -0.117723025
0.15024823 0.012535682 0.26595095 -0.13136822 0.021281 -0.14089514 0.06943518 0.005576512
-0.055592503 -0.14327699 -0.26224136 -0.06602161 -0.0679398 0.018368047 0.075370274 0.13104557
-0.11087999 0.028689088 0.14297478 0.07341321 0.3504125 0.026382605 -0.083165996 0.0357008
0.16836163 0.33141494 0.13248089 -0.15263902 0.020064164 0.24962044 0.21148396 -0.0707867
0.021766968 -0.046722874 -0.037105747 0.030776612 0.09315863 0.095771186 0.30207235 -0.3238572
-0.153305 -0.12606895 -1.3576173 -0.05384254 -0.009816508 0.016704816 0.012872031 0.099456914
0.040698715 0.07748258 -0.09581014 -0.01637609 -0.031262334 0.19491906 0.12931918 0.03759151
0.086081274 0.06635181 0.100167036 -0.07773313 -0.005726961 0.14905874 0.14931446 0.05006363
0.010424035 -0.0038850165 0.11191062 0.057274386 0.0055157403 0.013640515 0.13025936 0.013638419
-0.12574905 -0.22249894 -0.3814425 -0.041535866 -0.00015253217 -0.19604866 0.048438977 0.26771078
-0.03953562 0.030003244 -0.0481945 0.25128374 0.00012404275 -0.20610438 -0.08382087 0.15071857
-0.056974 0.27213717 -0.0560974 -0.020251466 0.06748225 -0.15539442 -0.082838506 -0.18673822
0.01646001 -0.11880912 0.06814524 0.10974701 0.011011239 -0.12332479 0.07105519 -0.0577038
00000000: 43bd 32bd 8858 973d 155f 37be 555f ef38
00000010: 3bc8 1cbe 5ca8 44bc 4b63 8ebe fb60 8b3e
00000020: 6c0b c53d 5247 cabe f9bc adb9 8abc 48be
00000030: c288 12be ffce f4bd 2f03 a9be 706c 963b
00000040: 9df4 ed3d 2401 e53d 499d b4be 9549 fdbd
00000050: 118c 013e a77f 133e 2458 3cbe 99d5 313e
00000060: ff83 18be 49c2 93bd e0d5 993d 0cfe 623d
00000070: 348e e8bd a443 fdbd c61b 15be a32d 053e
00000080: a6ce 103d 873f bbbe 3ca3 e4bd 6691 98bc
00000090: 6d4e d8bc e873 2f3e 7106 b23d 1b04 6a3e
000000a0: 0a16 63bc 50ff 943a 3ee3 a93d d903 77bd
000000b0: 253d 44bd b9d6 85be 351c c1be b1b8 333e
000000c0: 2b33 983c 1c6c 21bb 4fd9 f73d 7ee2 c8bd
000000d0: 24ef e53c 837d d13d 0db0 4c3e 466f b93d
000000e0: f01d 653e 4f6b f7bd 3b09 86bc 5aa4 0c3c
000000f0: 5fae d73d 9c81 933e d060 613c da55 693c
00000100: f5e2 243e d38c bfbc 326f 86be 26e1 90bc
00000110: 0809 5c3e 4d4f 513e 63d0 0a3e 8ecc aabd
00000120: fcf8 173c 620c 173c b97f 9a3d 441d 1e3e
00000130: 08e5 853d 73b7 983d 37e0 433e bb45 0fbe
00000140: 18bf c33c 33dd 2a3e f827 c93d 7355 81be
00000150: b6cb 883e 4ab4 2fbe b4b1 1fbe 7144 10be
00000160: 7168 50bf 0787 413d 654b 0f3d 3a16 b83d
00000170: ba2b 123a 33fd 1f3e 307a abbe 078d 1cbb
00000180: 5fe4 be3d 4579 65bd b4f9 3cbe a5b9 66be
00000190: 9732 cc3d 72ff e73d 6536 163e 23f0 a33d
000001a0: 97e7 a7be 71b3 723c c2b2 6a3d b657 4dbe
000001b0: b38c 39be bc78 96bd d253 503c 760c 8d3e
000001c0: a440 08bf da0b 70bd 5486 c9be 4952 96bf
000001d0: 3d55 c9bd 2f06 943b 401d 39be 8afb ebbd
000001e0: 5381 91be 3609 5dbe cdfa f4bd 3eaa 9c3d
000001f0: b380 ffbd 274e 8bbc 74d5 f2bd 26ca 9dbe
00000200: bd67 7dbd cabd a2be 1a68 b3be ee77 88be
00000210: 5e9d 2dbe ba88 1fbe 27d6 833e 7ca2 43be
00000220: 3ef9 27be cdac 513e b57b 2ebd f92a 073d
00000230: 3ba7 e5bd 2cc7 0d3e 2956 aa3e 3f97 d2be
00000240: ac34 c1be 1c29 593e eb0a 5a3e 0946 28bd
00000250: ff36 19be b1bd 9fbd a230 61bd c518 f1bd
00000260: acda 193e 7662 4d3c b92a 883e 6485 06be
00000270: 7e55 ae3c d146 10be 0834 8e3d 2cbb b63b
00000280: f7b4 63bd 34b7 12be 8044 86be 5636 87bd
00000290: 0624 8bbd 9678 963c bb5b 9a3d cf30 063e
000002a0: 0c15 e3bd 6105 eb3c fb67 123e aa59 963d
000002b0: 4469 b33e 5520 d83c ef52 aabd 013b 123d
000002c0: fe66 2c3e 38af a93e 12a9 073e 674d 1cbe
000002d0: 9a5d a43c 809c 7f3e 408f 583e 9ef8 90bd
000002e0: a450 b23c 7c60 3fbd 32fc 17bd 3c1f fc3c
000002f0: f4c9 be3d af23 c43d 3aa9 9a3e 9cd0 a5be
00000300: fcfb 1cbe 3818 01be 67c6 adbf ff89 5cbd
00000310: 6bd5 20bc 8ad8 883c 36e5 523c 11b0 cb3d
00000320: b2b3 263d 30af 9e3d 1b38 c4bd 2627 86bc
00000330: ef0c 00bd dd98 473e 3f6c 043e 8ef9 193d
00000340: 614b b03d 75e3 873d 6024 cd3d 8c32 9fbd
00000350: 3ba9 bbbb dba2 183e e4e5 183e 850f 4d3d
00000360: 92c9 2a3c c39b 7ebb 6531 e53d 8c98 6a3d
00000370: 62bd b43b 777c 5f3c b662 053e ad73 5f3c
00000380: 5cc4 00be c3d6 63be 6e4c c3be 8321 2abd
00000390: 0bf1 1fb9 fbc0 48be f367 463d 6311 893e
000003a0: 1af0 21bd 5dc9 f53c 9967 45bd 43a8 803e
000003b0: 7911 0239 070d 53be 47aa abbd f855 1a3e
000003c0: 925d 69bd 9055 8b3e 63c6 65bd 67e6 a5bc
000003d0: 2234 8a3d b71f 1fbe 3ca7 a9bd 4e38 3fbe
000003e0: 25d7 863c 3252 f3bd bb8f 8b3d 0ac3 e03d
000003f0: 7c68 343c b591 fcbd 6285 913d d25a 6cbd

fc1.bias f4 [64]
0.108363576 0.06484917 -0.1170351 -0.068766326 0.19508491 -0.004215449 -0.09457817 0.02615441
-0.119615495 -0.24237128 0.18461005 0.2098495 0.05567415 0.069607146 -0.05612791 -0.079187974
0.039971143 0.0030051067 0.0053653354 -0.12901337 -0.09445231 0.021153377 0.034068253 -0.19964087
-0.21045737 0.15691815 0.0119932685 -0.21479316 0.24610335 0.14535303 -0.08101733 -0.14759177
0.13865414 0.04466369 -0.10350932 0.006901456 -0.00725562 0.012104025 0.011598052 -0.1438566
-0.112841465 -0.14977644 -0.099378094 0.19827378 0.016646212 -0.06180715 0.053767264 -0.17893992
-0.070476905 0.14961351 -0.1532042 0.04292583 0.014277262 -0.15126786 -0.14671296 0.0034985023
0.10511546 0.019216236 -0.10906031 -0.11954897 0.026767401 -0.0032749316 0.056117475 0.067912616
00000000: b9ed dd3d a4cf 843d 19b0 efbd 5cd5 8cbd
00000010: 57c4 473e c021 8abb 33b2 c1bd c641 d63c
00000020: f8f8 f4bd 2d30 78be 6b0a 3d3e cae2 563e
00000030: 940a 643d 318e 8e3d 61e6 65bd 4e2d a2bd
00000040: c8b8 233d 53f1 443b b2cf af3b 151c 04be
00000050: 3670 c1bd d949 ad3c 278b 0b3d a86e 4cbe
00000060: 2382 57be 27af 203e 6a7f 443c bdf2 5bbe
00000070: 8402 7c3e 6dd7 143e 6aec a5bd 4c22 17be
00000080: 5afb 0d3e 46f1 363d b2fc d3bd 9c25 e23b
00000090: 8dc0 edbb f64f 463c c205 3e3c 254f 13be
000000a0: 6d19 e7bd ff5e 19be be86 cbbd 4808 4b3e
000000b0: a35d 883c 7e29 7dbd 103b 5c3d 073c 37be
000000c0: 3256 90bd 4934 193e 90e1 1cbe ffd2 2f3d
000000d0: 2deb 693c f6e5 1abe ec3b 16be 2147 653b
000000e0: c646 d73d 5e6b 9d3c 035b dfbd 17d6 f4bd
000000f0: 4f47 db3c 3ca0 56bb 70db 653d c515 8b3d

fc2.weight f4 [64, 64]
0.029556938 -0.14169571 0.026202735 0.12916455 -0.02182998 -0.14396231 -0.19893184 0.13211223
-0.019190991 -0.088320784 0.059596468 -0.50721884 -0.27455094 0.3780109 -0.11895413 0.12061101
-0.22076476 0.1456107 -0.042631242 0.010701583 -0.11414302 -0.23563018 -0.17212234 0.22479224
-0.44962454 0.08632778 0.21237962 -0.20270488 -0.30322373 0.0064627347 0.121204294 -0.18154886
0.22948149 0.17969921 0.284568 0.058935773 -0.18174267 0.0138348695 0.39630198 -0.05784493
0.038755707 -0.2376322 0.130936 -0.046236165 0.15783016 -0.2246035 0.42858073 -0.052727666
-0.074941725 -0.027198872 -0.05305565 -0.2656481 -0.15514733 0.48955858 0.39832243 0.06571466
-0.18875612 -0.19697651 -0.13108025 0.2574561 0.00057877065 0.13982248 -0.020743554 -0.020538434
-0.0520533 0.062218457 -0.03207438 -0.31054536 0.021811452 0.12850071 -0.09583417 0.026442623
0.01909366 0.05329079 0.06823009 0.23927623 -0.007940166 0.016664842 -0.2204893 0.07535208
0.120880485 -0.16530728 -0.14191894 -0.12608708 0.09234687 -0.09339857 0.089621425 0.022750184
0.01568117 -0.049241588 -0.24214868 -0.077187635 0.2538927 0.016879706 0.4239656 0.024597697
-0.26980823 0.14587173 0.032578446 0.065301426 0.025482032 0.1425914 0.15086295 -0.15485089
-0.019120194 0.041469418 -0.29311928 -0.11367098 -0.055372387 0.026995962 -0.22255532 -0.077916734
-0.019556127 0.06074644 -0.019320063 0.14179859 -0.2760554 0.03638795 0.23389527 0.14732549
-0.2094032 -0.22825131 0.1326718 0.065302126 -0.20631053 -0.1239892 -0.04563388 -0.06491726
-0.11757575 -0.09093187 -0.16971622 -0.07699425 -0.118100084 0.091304034 -0.059905183 0.12696452
0.084819034 -0.05574372 0.073730655 0.14341104 0.033874106 -0.052488383 0.0700354 -0.37794366
-0.13316745 -0.05123944 -0.06504299 0.10851596 0.01603673 0.17962305 0.03572693 -0.09928823
-0.06420979 0.16160443 0.03267182 -0.068955205 0.20655142 0.118056476 -0.03634971 0.029253522
0.22525875 -0.1846476 -0.28132656 0.075147726 0.24117213 0.032756247 0.34455645 -0.09643066
0.16056454 -0.2142602 -0.33665946 -0.03477774 0.022370547 -0.019085858 -0.01419821 -0.054204516
-0.13034756 -0.055449072 -0.22974792 0.0728346 -0.1815315 0.31100866 -0.2544563 -0.013215253
0.037276037 -0.23095647 0.18012342 0.06804841 0.023895428 0.0584122 0.056763005 0.12851927
-0.021148382 -0.15281504 0.06524248 -0.12071409 -0.073967405 -0.021021336 -0.060049716 -0.05950131
-0.1199008 0.005226073 -0.060371257 0.08403609 -0.079288505 0.060074512 -0.002394715 -0.07773005
-0.06302277 -0.02334815 -0.0247399 -0.05320934 0.02521661 0.077898666 -0.020101164 0.0054368298
0.046121057 -0.01672931 0.040489607 0.039459437 0.08810026 -0.14834255 0.008333636 -0.028284015
-0.03953121 -0.0690238 0.033063564 0.08619457 -0.13119534 0.045729868 0.05295199 -0.06419784
-0.007758521 0.03263092 0.004875524 -0.1016897 -0.03846283 0.02589763 0.002744178 -0.032572933
-0.011042353 0.0003049482 -0.12329 0.0017136616 0.02948513 -0.006332673 -0.056104887 0.049093243
-0.12195413 -0.06769335 -0.07586237 0.08379128 -0.1642734 -0.026394749 -0.1363504 -0.044339065
00000000: 6421 f23c ae18 11be 1ea7 d63c b643 043e
00000010: c9d4 b2bc db6a 13be cab4 4bbe 6e48 073e
00000020: 6d36 9dbc 87e1 b4bd 6d1b 743d 18d9 01bf
00000030: f191 8cbe a58a c13e 399e f3bd e802 f73d
00000040: 2810 62be f91a 153e 199e 2ebd b155 2f3c
00000050: d1c3 e9bd 0a49 71be d740 30be f02f 663e
00000060: 3035 e6be 9ecc b03d 0b7a 593e de91 4fbe
00000070: 2440 9bbe 59c5 d33b f539 f83d f2e7 39be
00000080: 32fd 6a3e 1203 383e e6b2 913e a366 713d
00000090: c01a 3abe a6ab 623c 18e8 ca3e ceee 6cbd
000000a0: 4ebe 1e3d db55 73be 1614 063e 2262 3dbd
000000b0: 3b9e 213e 76fe 65be ef6e db3e f7f8 57bd
000000c0: 0c7b 99bd 2bd0 debc e250 59bd 0703 88be
000000d0: f1de 1ebe 6ca7 fa3e ebf0 cb3e 6895 863d
000000e0: 4949 41be 36b4 49be e739 06be 49d1 833e
000000f0: a4b8 173a a02d 0f3e 63ee a9bc 3840 a8bc
00000100: d735 55bd c8d8 7e3d 6d60 03bd cdff 9ebe
00000110: eead b23c b195 033e b544 c4bd 339e d83c
00000120: 4f6a 9c3c 7247 5a3d 38bc 8b3d d404 753e
00000130: 7817 02bc b584 883c f2c7 61be 3152 9a3d
00000140: 3090 f73d 5046 29be 3353 11be f91c 01be
00000150: 5b20 bd3d c047 bfbd 708b b73d 985e ba3c
00000160: cc75 803c 8cb1 49bd d3f5 77be 8d14 9ebd
00000170: 39fe 813e 4f47 8a3c 0512 d93e 1c81 c93c
00000180: 4e24 8abe 665f 153e fa70 053d c1bc 853d
00000190: b2bf d03c 7b03 123e d17b 1a3e 3b91 1ebe
000001a0: f4a1 9cbc d6db 293d bb13 96be 55cc e8bd
000001b0: 28ce 62bd a326 dd3c 8be5 63be cf92 9fbd
000001c0: 2c34 a0bc 42d1 783d 1c45 9ebc a633 113e
000001d0: 2257 8dbe 880b 153d 3e82 6f3e 7edc 163e
000001e0: cb6d 56be b6ba 69be 1edb 073e 1fbd 853d
000001f0: 1143 53be 0dee fdbd 97ea 3abd 57f3 84bd
00000200: 8ecb f0bd 7d3a babd 17ca 2dbe 29af 9dbd
00000210: 75de f1bd 9cfd ba3d 235f 75bd fd02 023e
00000220: 9ab5 ad3d 8753 64bd 1900 973d 58da 123e
00000230: 93bf 0a3d 0ffe 56bd b86e 8f3d d581 c1be
00000240: 0c5d 08be 72e0 51bd 4235 85bd 9e3d de3d
00000250: 765f 833c 1bef 373e 6756 123d a157 cbbd
00000260: 6c80 83bd a27b 253e e3d2 053d 6338 8dbd
00000270: 3782 533e 98c7 f13d 6fe3 14bd 15a5 ef3c
00000280: 3baa 663e 4314 3dbe 090a 90be 0de7 993d
00000290: d4f5 763e 6a2b 063d b469 b03e 707d c5bd
000002a0: 086b 243e 0767 5bbe a15e acbe 1a73 0ebd
000002b0: 7042 b73c f259 9cbc 9c9f 68bc 8e05 5ebd
000002c0: d579 05be 911e 63bd 0a43 6bbe 4f2a 953d
000002d0: 65e3 39be 873c 9f3e 1948 82be ca84 58bc
000002e0: c2ae 183d da7f 6cbe 4672 383e f75c 8b3d
000002f0: 58c0 c33c a241 6f3d 5380 683d 8e9a 033e
00000300: 5f3f adbc 8c7b 1cbe d99d 853d f338 f7bd
00000310: 397c 97bd f034 acbc b1f6 75bd a5b7 73bd
00000320: 8d8e f5bd 7a3f ab3b da47 77bd 1d1b ac3d
00000330: 0362 a2bd b110 763d a7f0 1cbb ef30 9fbd
00000340: 1512 81bd 9f44 bfbc 55ab cabc 09f2 59bd
00000350: 1093 ce3c 5689 9f3d 32ab a4bc 6f27 b23b
00000360: 6fe9 3c3d e80b 89bc 6ed8 253d 38a0 213d
00000370: e96d b43d 1ce7 17be ce89 083c e1b3 e7bc
00000380: 7aeb 21bd 5a5c 8dbd a96d 073d c786 b03d
00000390: 1258 06be 3e4f 3b3d 30e4 583d 287a 83bd
000003a0: 313b febb 00a8 053d dcc2 9f3b b042 d0bd
000003b0: 338b 1dbd 4427 d43c abd7 333b 326b 05bd
000003c0: fcea 34bc 74e1 9f39 787f fcbd f19c e03a
000003d0: cd8a f13c 5082 cfbb 3dce 65bd ff15 493d
000003e0: 16c3 f9bd d0a2 8abd bb5d 9bbd c39a ab3d
000003f0: 4937 28be cd39 d8bc 709f 0bbe e19c 35bd

fc2.bias f4 [64]
-0.15675281 0.060857493 0.17425902 -0.0015181546 0.095803335 -0.13460842 -0.112683 0.11090386
0.098034345 0.42846513 -0.12296392 0.26819944 0.022573605 -0.068157785 -0.0918397 0.18732333
-0.029040512 -0.0068033296 -0.07000081 0.33392733 0.12613852 0.38853252 -0.13575536 -0.03878088
-0.058037747 -0.07681215 0.08314072 -0.11856206 -0.11077159 0.031012803 0.043578427 -0.026785204
0.014365864 0.1119941 -0.019221326 -0.07307563 -0.12577784 -0.09868382 0.36956897 -0.07607626
-0.04176697 0.48894644 0.23742586 -0.052512296 -0.020141253 -0.116776295 0.25788963 -0.21062852
0.17740647 -0.026481073 -0.066648975 0.26484552 0.009330145 -0.05328066 0.0066926125 0.010664111
-0.1530258 -0.09583621 0.05988467 0.07635747 0.045041237 0.2940693 0.13494208 -0.02512973
00000000: cf83 20be b545 793d f570 323e d1fc c6ba
00000010: 8a34 c43d cad6 09be 58c6 e6bd 9021 e33d
00000020: 3bc6 c83d c85f db3e 82d4 fbbd 7051 893e
00000030: 48ec b83c 4f96 8bbd 7416 bcbd b0d1 3f3e
00000040: 5ee6 edbc 77ee debb 965c 8fbd 86f8 aa3e
00000050: 752a 013e bced c63e 7403 0bbe b3d8 1ebd
00000060: fdb8 6dbd b04f 9dbd af45 aa3d aad0 f2bd
00000070: 37dc e2bd 900e fe3c 4b7f 323d a56c dbbc
00000080: cd5e 6b3c 2a5d e53d 0b76 9dbc ada8 95bd
00000090: e8cb 00be be1a cabd 2538 bd3e dfcd 9bbd
000000a0: d813 2bbd 3057 fa3e c41f 733e 2217 57bd
000000b0: 45ff a4bc 6928 efbd 1c0a 843e 01af 57be
000000c0: 0baa 353e d6ee d8bc 427f 88bd d599 873e
000000d0: 77dd 183c d23c 5abd b44d db3b 86b8 2e3c
000000e0: ccb2 1cbe c645 c4bd a149 753d 4e61 9c3d
000000f0: 297d 383d 4090 963e 422e 0a3e dddc cdbc

fc3.weight f4 [4, 64]
-0.15764934 0.1328328 0.10254671 -0.07037437 0.25428203 -0.32525063 -0.083762735 0.085004136
0.4728388 0.11475265 -0.081529155 0.22507426 0.012551493 -0.02888568 -0.023719754 0.1362567
-0.18904537 0.059590336 -0.08287577 0.19985121 0.08286673 0.20919873 0.1934221 -0.49646598
-0.28377318 -0.08430669 -0.15745898 -0.26787394 0.32308313 0.23058698 -0.24452364 0.10858127
0.28307223 0.33726844 0.040669672 -0.06429254 0.16978326 -0.40642413 0.12924547 0.23568547
0.31782687 0.16004138 0.06079092 0.14598802 0.16914359 -0.08999691 0.16907597 -0.2117015
0.10458543 0.25947735 -0.037493926 0.1240625 0.110140316 -0.17215441 0.25073063 0.14105201
-0.22346199 0.027755681 0.23990507 0.16893435 0.03380839 0.21060346 0.16896442 0.38078222
0.05069418 0.023393128 0.17855582 0.017807366 0.22586907 -0.16155441 -0.37935668 0.07940208
0.20446865 0.1379862 0.19660912 0.13399427 0.13965318 0.00913178 -0.020247638 0.21039495
0.0072136545 0.046982974 -0.10740945 0.109503984 0.12520063 0.25731286 -0.04050211 -0.13651112
-0.055496953 -0.20222612 0.0035378374 -0.33773154 -0.39960745 0.24632534 0.038386296 0.14718695
0.30531177 0.13181241 0.22868457 -0.11066081 0.18128945 -0.42082077 0.19380873 0.07184949
0.47119436 0.16248395 0.053765062 0.30774838 0.15862407 -0.11955604 0.16003184 -0.25211275
0.13795601 0.18828297 0.061511084 0.011533094 0.23179221 -0.0068211565 0.18542309 0.1866383
-0.102847554 -0.17457508 0.42830524 0.124821775 -0.014682112 0.009931203 -0.2821979 0.30058396
-0.47460973 0.16277157 0.24404787 0.011964416 0.4445677 -0.024632279 0.01793627 0.050518565
0.19896783 0.139667 -0.31168038 0.12381089 0.21148789 -0.17170689 -0.074394986 0.33990252
0.17125197 0.20286685 0.19998635 0.07992278 0.10572935 0.2342196 -0.09565628 -0.21786368
0.037559696 0.18456793 0.06287675 -0.3721431 0.1698511 0.32023618 -0.260794 0.021997659
-0.19910707 0.196199 0.28358045 0.38492367 0.17598034 -0.3050094 0.14259307 -0.17829195
-0.05964166 0.17469907 0.25231585 0.3586361 0.30799198 -0.14044076 0.16092882 0.035461932
0.29383612 0.049438726 -0.0005593863 0.19517095 0.21616602 -0.020209536 0.37997788 0.10942058
-0.107384875 0.055128455 0.55478513 0.005964265 -0.19073248 0.18388733 -0.3467666 0.21494366
0.033329647 0.052654173 0.04265413 -0.052105002 0.20872992 -0.0736652 -0.046261888 0.3473558
0.20769756 0.15994349 -0.10114757 0.17293344 0.24778488 0.24271233 0.043420188 0.05952697
0.16995183 0.3082 0.29755217 0.16063419 0.0059986357 0.1972439 -0.22071329 0.013302879
-0.100783974 -0.09556877 -0.06793776 -0.089814946 0.22390635 -0.09366444 -0.07916682 0.13209254
0.02623344 0.21569237 0.016484622 -0.3326271 -0.10786913 -0.2697301 0.1964229 0.2057699
-0.045170683 0.18352546 0.23687427 0.06360616 0.5041612 -0.25761122 0.1184273 -0.4723834
0.21001926 0.037999958 0.18232712 0.095219195 0.103072055 0.05974857 0.20998046 0.3527972
-0.18757275 -0.30407885 0.120973304 0.2750078 0.073024794 0.04915371 -0.0032214373 0.55158085
00000000: d46e 21be 5205 083e 0204 d23d 7020 90bd
00000010: 4131 823e 4087 a6be cc8b abbd a616 ae3d
00000020: ed17 f23e 7003 eb3d c2f8 a6bd de79 663e
00000030: c7a4 4d3c a9a1 ecbc ee4f c2bc e086 0b3e
00000040: 1c95 41be ff14 743d c6ba a9bd cca5 4c3e
00000050: 08b6 a93d 3138 563e 7110 463e ca30 febe
00000060: b84a 91be fca8 acbd ed3c 21be c626 89be
00000070: 276b a53e fe1e 6c3e 6864 7abe db5f de3d
00000080: d8ee 903e 73ae ac3e 3e95 263d cfab 83bd
00000090: aadb 2d3e d316 d0be ed58 043e 8857 713e
000000a0: 34ba a23e e3e1 233e e6ff 783d e27d 153e
000000b0: fa33 2d3e 4d50 b8bd 4022 2d3e 47c8 58be
000000c0: e330 d63d 37da 843e 3b93 19bd 7b14 fe3d
000000d0: 3f91 e13d 3f49 30be c45f 803e f06f 103e
000000e0: 38d3 64be e25f e33c ada9 753e 20fd 2c3e
000000f0: ab7a 0a3d 6fa8 573e 0205 2d3e e3f5 c23e
00000100: b3a4 4f3d f2a2 bf3c 56d7 363e c1e0 913c
00000110: 394a 673e 856e 25be 0a3b c2be 8f9d a23d
00000120: 3b60 513e 414c 0d3e e753 493e cb35 093e
00000130: 3e01 0f3e 769d 153c 60de a5bc c671 573e
00000140: 8560 ec3b 3871 403d 7cf9 dbbd a043 e03d
00000150: 9834 003e 83be 833e 8ae5 25bd 92c9 0bbe
00000160: c650 63bd 5d14 4fbe 10db 673b 26eb acbe
00000170: 5999 ccbe b63c 7c3e f33a 1d3d 2db8 163e
00000180: d351 9c3e d5f9 063e 4a2c 6a3e 22a2 e2bd
00000190: f1a3 393e d275 d7be cc75 463e d325 933d
000001a0: 6340 f13e 3162 263e c138 5c3d 3291 9d3e
000001b0: 596e 223e ccd9 f4bd 63df 233e ec14 81be
000001c0: 5744 0d3e 40cd 403e 0cf3 7b3d 4df5 3c3c
000001d0: f05a 6d3e 0284 dfbb 8ddf 3d3e 1c1e 3f3e
000001e0: bda1 d2bd cfc3 32be d34a db3e 8fa2 ff3d
000001f0: 3e8d 70bc 7cb6 223c 3e7c 90be 24e6 993e
00000200: 0c00 f3be 97ad 263e afe7 793e 6606 443c
00000210: 619e e33e a2c9 c9bc 16ef 923c 8eec 4e3d
00000220: 39be 4b3e de04 0f3e 9294 9fbe 9090 fd3d
00000230: 4890 583e eed3 2fbe 665c 98bd b407 ae3e
00000240: ad5c 2f3e 54bc 4f3e 39c9 4c3e 8eae a33d
00000250: a188 d83d 43d7 6f3e 71e7 c3bd a817 5fbe
00000260: 32d8 193d 60ff 3c3e 87c5 803d 8a89 bebe
00000270: 72ed 2d3e fff5 a33e cb86 85be 6f34 b43c
00000280: b9e2 4bbe 64e8 483e 7531 913e b714 c53e
00000290: 3134 343e 312a 9cbe eb03 123e 2a92 36be
000002a0: d04a 74bd 50e4 323e 8b2f 813e 279f b73e
000002b0: 20b1 9d3e b4cf 0fbe 86ca 243e 8840 113d
000002c0: b071 963e 4380 4a3d c7a3 12ba e5da 473e
000002d0: a05a 5d3e 788e a5bc 768c c23e e617 e03d
000002e0: 9aec dbbd 60ce 613d 6606 0e3f e26f c33b
000002f0: 604f 43be f64c 3c3e 648b b1be 311a 5c3e
00000300: ab84 083d e7ab 573d 19b6 2e3d 0e6c 55bd
00000310: 4cbd 553e c8dd 96bd 1b7d 3dbd 9fd8 b13e
00000320: abae 543e 3ac8 233e 7526 cfbd 7715 313e
00000330: 52bb 7d3e 9589 783e 5ed9 313d 8dd2 733d
00000340: da07 2e3e 64cc 9d3e c258 983e 4a7d 243e
00000350: 3490 c43b 4efa 493e aa02 62be 52f4 593c
00000360: d467 cebd 8fb9 c3bd f422 8bbd e6f0 b7bd
00000370: b547 653e 24d3 bfbd 3722 a2bd 4443 073e
00000380: 83e7 d63c 76de 5c3e c20a 873c 194e aabe
00000390: 7eea dcbd 101a 8abe 1623 493e 58b5 523e
000003a0: e504 39bd 19ee 3b3e 2b8f 723e f243 823d
000003b0: b510 013f 9ee5 83be 038a f23d 3ddc f1be
000003c0: 4a0f 573e d8a5 1b3d f6b3 3a3e 4802 c33d
000003d0: 7117 d33d ebba 743d 1e05 573e d6a1 b43e
000003e0: 1213 40be 39b0 9bbe dac0 f73d d3cd 8c3e
000003f0: 068e 953d 6755 493d c01e 53bb 6734 0d3f

fc3.bias f4 [4]
0.24789208 0.23896614 0.14599659 0.21299534
00000000: 6cd7 7d3e 8ab3 743e 2180 153e 731b 5a3e
